…
I0603 14:04:34.122493  6016 net.cpp:313] The NetState phase (0) differed from the phase (1) specified by a rule in layer accuracy/top-5
I0603 14:04:34.122994  6016 net.cpp:49] Initializing net from parameters: 
name: "FingerprintCaffeNet"
state {
  phase: TRAIN
}
layer {
  name: "data"
  type: "ImageData"
  top: "data"
  top: "label"
  include {
    phase: TRAIN
  }
  transform_param {
    mirror: true
    crop_size: 227
    mean_file: "imagenet_mean.binaryproto"
  }
  image_data_param {
    source: "data/train.txt"
    batch_size: 50
    new_height: 256
    new_width: 256
  }
}
layer {
  name: "conv1"
  type: "Convolution"
  bottom: "data"
  top: "conv1"
  param {
    lr_mult: 1
    decay_mult: 1
  }
  param {
    lr_mult: 2
    decay_mult: 0
  }
  convolution_param {
    num_output: 96
    kernel_size: 11
    stride: 4
    weight_filler {
      type: "gaussian"
      std: 0.01
    }
    bias_filler {
      type: "constant"
      value: 0
    }
  }
}
layer {
  name: "relu1"
  type: "ReLU"
  bottom: "conv1"
  top: "conv1"
}
layer {
  name: "pool1"
  type: "Pooling"
  bottom: "conv1"
  top: "pool1"
  pooling_param {
    pool: MAX
    kernel_size: 3
    stride: 2
  }
}
layer {
  name: "norm1"
  type: "LRN"
  bottom: "pool1"
  top: "norm1"
  lrn_param {
    local_size: 5
    alpha: 0.0001
    beta: 0.75
  }
}
layer {
  name: "conv2"
  type: "Convolution"
  bottom: "norm1"
  top: "conv2"
  param {
    lr_mult: 1
    decay_mult: 1
  }
  param {
    lr_mult: 2
    decay_mult: 0
  }
  convolution_param {
    num_output: 256
    pad: 2
    kernel_size: 5
    group: 2
    weight_filler {
      type: "gaussian"
      std: 0.01
    }
    bias_filler {
      type: "constant"
      value: 1
    }
  }
}
layer {
  name: "relu2"
  type: "ReLU"
  bottom: "conv2"
  top: "conv2"
}
layer {
  name: "pool2"
  type: "Pooling"
  bottom: "conv2"
  top: "pool2"
  pooling_param {
    pool: MAX
    kernel_size: 3
    stride: 2
  }
}
layer {
  name: "norm2"
  type: "LRN"
  bottom: "pool2"
  top: "norm2"
  lrn_param {
    local_size: 5
    alpha: 0.0001
    beta: 0.75
  }
}
layer {
  name: "conv3"
  type: "Convolution"
  bottom: "norm2"
  top: "conv3"
  param {
    lr_mult: 1
    decay_mult: 1
  }
  param {
    lr_mult: 2
    decay_mult: 0
  }
  convolution_param {
    num_output: 384
    pad: 1
    kernel_size: 3
    weight_filler {
      type: "gaussian"
      std: 0.01
    }
    bias_filler {
      type: "constant"
      value: 0
    }
  }
}
layer {
  name: "relu3"
  type: "ReLU"
  bottom: "conv3"
  top: "conv3"
}
layer {
  name: "conv4"
  type: "Convolution"
  bottom: "conv3"
  top: "conv4"
  param {
    lr_mult: 1
    decay_mult: 1
  }
  param {
    lr_mult: 2
    decay_mult: 0
  }
  convolution_param {
    num_output: 384
    pad: 1
    kernel_size: 3
    group: 2
    weight_filler {
      type: "gaussian"
      std: 0.01
    }
    bias_filler {
      type: "constant"
      value: 1
    }
  }
}
layer {
  name: "relu4"
  type: "ReLU"
  bottom: "conv4"
  top: "conv4"
}
layer {
  name: "conv5"
  type: "Convolution"
  bottom: "conv4"
  top: "conv5"
  param {
    lr_mult: 1
    decay_mult: 1
  }
  param {
    lr_mult: 2
    decay_mult: 0
  }
  convolution_param {
    num_output: 256
    pad: 1
    kernel_size: 3
    group: 2
    weight_filler {
      type: "gaussian"
      std: 0.01
    }
    bias_filler {
      type: "constant"
      value: 1
    }
  }
}
layer {
  name: "relu5"
  type: "ReLU"
  bottom: "conv5"
  top: "conv5"
}
layer {
  name: "pool5"
  type: "Pooling"
  bottom: "conv5"
  top: "pool5"
  pooling_param {
    pool: MAX
    kernel_size: 3
    stride: 2
  }
}
layer {
  name: "fc6"
  type: "InnerProduct"
  bottom: "pool5"
  top: "fc6"
  param {
    lr_mult: 1
    decay_mult: 1
  }
  param {
    lr_mult: 2
    decay_mult: 0
  }
  inner_product_param {
    num_output: 4096
    weight_filler {
      type: "gaussian"
      std: 0.005
    }
    bias_filler {
      type: "constant"
      value: 1
    }
  }
}
layer {
  name: "relu6"
  type: "ReLU"
  bottom: "fc6"
  top: "fc6"
}
layer {
  name: "drop6"
  type: "Dropout"
  bottom: "fc6"
  top: "fc6"
  dropout_param {
    dropout_ratio: 0.5
  }
}
layer {
  name: "fc7"
  type: "InnerProduct"
  bottom: "fc6"
  top: "fc7"
  param {
    lr_mult: 1
    decay_mult: 1
  }
  param {
    lr_mult: 2
    decay_mult: 0
  }
  inner_product_param {
    num_output: 4096
    weight_filler {
      type: "gaussian"
      std: 0.005
    }
    bias_filler {
      type: "constant"
      value: 1
    }
  }
}
layer {
  name: "relu7"
  type: "ReLU"
  bottom: "fc7"
  top: "fc7"
}
layer {
  name: "drop7"
  type: "Dropout"
  bottom: "fc7"
  top: "fc7"
  dropout_param {
    dropout_ratio: 0.5
  }
}
layer {
  name: "fc8_fingerprint"
  type: "InnerProduct"
  bottom: "fc7"
  top: "fc8_fingerprint"
  param {
    lr_mult: 10
    decay_mult: 1
  }
  param {
    lr_mult: 20
    decay_mult: 0
  }
  inner_product_param {
    num_output: 140
    weight_filler {
      type: "gaussian"
      std: 0.01
    }
    bias_filler {
      type: "constant"
      value: 0
    }
  }
}
layer {
  name: "loss"
  type: "SoftmaxWithLoss"
  bottom: "fc8_fingerprint"
  bottom: "label"
  top: "loss"
}
I0603 14:04:34.129511  6016 layer_factory.hpp:77] Creating layer data
I0603 14:04:34.129511  6016 net.cpp:91] Creating Layer data
I0603 14:04:34.129511  6016 net.cpp:399] data -> data
I0603 14:04:34.129511  6016 net.cpp:399] data -> label
I0603 14:04:34.129511  6016 data_transformer.cpp:25] Loading mean file from: imagenet_mean.binaryproto
I0603 14:04:34.179540  6016 common.cpp:36] System entropy source not available, using fallback algorithm to generate seed instead.
I0603 14:04:34.179540  6016 image_data_layer.cpp:38] Opening file data/train.txt
I0603 14:04:34.335839  6016 image_data_layer.cpp:53] A total of 73171 images.
I0603 14:04:34.337311  6016 image_data_layer.cpp:80] output data size: 50,3,227,227
I0603 14:04:34.387284  6016 net.cpp:141] Setting up data
I0603 14:04:34.387284  6016 net.cpp:148] Top shape: 50 3 227 227 (7729350)
I0603 14:04:34.387284  6016 net.cpp:148] Top shape: 50 (50)
I0603 14:04:34.387284  6016 net.cpp:156] Memory required for data: 30917600
I0603 14:04:34.387284  6016 layer_factory.hpp:77] Creating layer conv1
I0603 14:04:34.387284  6016 net.cpp:91] Creating Layer conv1
I0603 14:04:34.387284  6016 net.cpp:425] conv1 <- data
I0603 14:04:34.387284  6016 net.cpp:399] conv1 -> conv1
I0603 14:04:34.393802 15468 common.cpp:36] System entropy source not available, using fallback algorithm to generate seed instead.
I0603 14:04:34.665601  6016 net.cpp:141] Setting up conv1
I0603 14:04:34.665601  6016 net.cpp:148] Top shape: 50 96 55 55 (14520000)
I0603 14:04:34.665601  6016 net.cpp:156] Memory required for data: 88997600
I0603 14:04:34.665601  6016 layer_factory.hpp:77] Creating layer relu1
I0603 14:04:34.665601  6016 net.cpp:91] Creating Layer relu1
I0603 14:04:34.665601  6016 net.cpp:425] relu1 <- conv1
I0603 14:04:34.665601  6016 net.cpp:386] relu1 -> conv1 (in-place)
I0603 14:04:34.666601  6016 net.cpp:141] Setting up relu1
I0603 14:04:34.666601  6016 net.cpp:148] Top shape: 50 96 55 55 (14520000)
I0603 14:04:34.666601  6016 net.cpp:156] Memory required for data: 147077600
I0603 14:04:34.666601  6016 layer_factory.hpp:77] Creating layer pool1
I0603 14:04:34.666601  6016 net.cpp:91] Creating Layer pool1
I0603 14:04:34.666601  6016 net.cpp:425] pool1 <- conv1
I0603 14:04:34.666601  6016 net.cpp:399] pool1 -> pool1
I0603 14:04:34.667104  6016 net.cpp:141] Setting up pool1
I0603 14:04:34.667104  6016 net.cpp:148] Top shape: 50 96 27 27 (3499200)
I0603 14:04:34.667104  6016 net.cpp:156] Memory required for data: 161074400
I0603 14:04:34.667104  6016 layer_factory.hpp:77] Creating layer norm1
I0603 14:04:34.667104  6016 net.cpp:91] Creating Layer norm1
I0603 14:04:34.667104  6016 net.cpp:425] norm1 <- pool1
I0603 14:04:34.667104  6016 net.cpp:399] norm1 -> norm1
I0603 14:04:34.668105  6016 net.cpp:141] Setting up norm1
I0603 14:04:34.668105  6016 net.cpp:148] Top shape: 50 96 27 27 (3499200)
I0603 14:04:34.668105  6016 net.cpp:156] Memory required for data: 175071200
I0603 14:04:34.668105  6016 layer_factory.hpp:77] Creating layer conv2
I0603 14:04:34.668105  6016 net.cpp:91] Creating Layer conv2
I0603 14:04:34.668105  6016 net.cpp:425] conv2 <- norm1
I0603 14:04:34.668105  6016 net.cpp:399] conv2 -> conv2
I0603 14:04:34.677630  6016 net.cpp:141] Setting up conv2
I0603 14:04:34.677630  6016 net.cpp:148] Top shape: 50 256 27 27 (9331200)
I0603 14:04:34.677630  6016 net.cpp:156] Memory required for data: 212396000
I0603 14:04:34.677630  6016 layer_factory.hpp:77] Creating layer relu2
I0603 14:04:34.677630  6016 net.cpp:91] Creating Layer relu2
I0603 14:04:34.677630  6016 net.cpp:425] relu2 <- conv2
I0603 14:04:34.677630  6016 net.cpp:386] relu2 -> conv2 (in-place)
I0603 14:04:34.678131  6016 net.cpp:141] Setting up relu2
I0603 14:04:34.678131  6016 net.cpp:148] Top shape: 50 256 27 27 (9331200)
I0603 14:04:34.678131  6016 net.cpp:156] Memory required for data: 249720800
I0603 14:04:34.678131  6016 layer_factory.hpp:77] Creating layer pool2
I0603 14:04:34.678131  6016 net.cpp:91] Creating Layer pool2
I0603 14:04:34.678131  6016 net.cpp:425] pool2 <- conv2
I0603 14:04:34.678131  6016 net.cpp:399] pool2 -> pool2
I0603 14:04:34.678131  6016 net.cpp:141] Setting up pool2
I0603 14:04:34.678131  6016 net.cpp:148] Top shape: 50 256 13 13 (2163200)
I0603 14:04:34.678131  6016 net.cpp:156] Memory required for data: 258373600
I0603 14:04:34.678131  6016 layer_factory.hpp:77] Creating layer norm2
I0603 14:04:34.678632  6016 net.cpp:91] Creating Layer norm2
I0603 14:04:34.678632  6016 net.cpp:425] norm2 <- pool2
I0603 14:04:34.678632  6016 net.cpp:399] norm2 -> norm2
I0603 14:04:34.678632  6016 net.cpp:141] Setting up norm2
I0603 14:04:34.678632  6016 net.cpp:148] Top shape: 50 256 13 13 (2163200)
I0603 14:04:34.678632  6016 net.cpp:156] Memory required for data: 267026400
I0603 14:04:34.678632  6016 layer_factory.hpp:77] Creating layer conv3
I0603 14:04:34.678632  6016 net.cpp:91] Creating Layer conv3
I0603 14:04:34.678632  6016 net.cpp:425] conv3 <- norm2
I0603 14:04:34.678632  6016 net.cpp:399] conv3 -> conv3
I0603 14:04:34.693174  6016 net.cpp:141] Setting up conv3
I0603 14:04:34.693174  6016 net.cpp:148] Top shape: 50 384 13 13 (3244800)
I0603 14:04:34.693174  6016 net.cpp:156] Memory required for data: 280005600
I0603 14:04:34.693174  6016 layer_factory.hpp:77] Creating layer relu3
I0603 14:04:34.693677  6016 net.cpp:91] Creating Layer relu3
I0603 14:04:34.693677  6016 net.cpp:425] relu3 <- conv3
I0603 14:04:34.693677  6016 net.cpp:386] relu3 -> conv3 (in-place)
I0603 14:04:34.694191  6016 net.cpp:141] Setting up relu3
I0603 14:04:34.694191  6016 net.cpp:148] Top shape: 50 384 13 13 (3244800)
I0603 14:04:34.694191  6016 net.cpp:156] Memory required for data: 292984800
I0603 14:04:34.694191  6016 layer_factory.hpp:77] Creating layer conv4
I0603 14:04:34.694191  6016 net.cpp:91] Creating Layer conv4
I0603 14:04:34.694191  6016 net.cpp:425] conv4 <- conv3
I0603 14:04:34.694191  6016 net.cpp:399] conv4 -> conv4
I0603 14:04:34.711223  6016 net.cpp:141] Setting up conv4
I0603 14:04:34.711223  6016 net.cpp:148] Top shape: 50 384 13 13 (3244800)
I0603 14:04:34.711223  6016 net.cpp:156] Memory required for data: 305964000
I0603 14:04:34.711766  6016 layer_factory.hpp:77] Creating layer relu4
I0603 14:04:34.711766  6016 net.cpp:91] Creating Layer relu4
I0603 14:04:34.711766  6016 net.cpp:425] relu4 <- conv4
I0603 14:04:34.711766  6016 net.cpp:386] relu4 -> conv4 (in-place)
I0603 14:04:34.713235  6016 net.cpp:141] Setting up relu4
I0603 14:04:34.713235  6016 net.cpp:148] Top shape: 50 384 13 13 (3244800)
I0603 14:04:34.713235  6016 net.cpp:156] Memory required for data: 318943200
I0603 14:04:34.713235  6016 layer_factory.hpp:77] Creating layer conv5
I0603 14:04:34.713235  6016 net.cpp:91] Creating Layer conv5
I0603 14:04:34.713235  6016 net.cpp:425] conv5 <- conv4
I0603 14:04:34.713235  6016 net.cpp:399] conv5 -> conv5
I0603 14:04:34.725762  6016 net.cpp:141] Setting up conv5
I0603 14:04:34.725762  6016 net.cpp:148] Top shape: 50 256 13 13 (2163200)
I0603 14:04:34.725762  6016 net.cpp:156] Memory required for data: 327596000
I0603 14:04:34.725762  6016 layer_factory.hpp:77] Creating layer relu5
I0603 14:04:34.725762  6016 net.cpp:91] Creating Layer relu5
I0603 14:04:34.725762  6016 net.cpp:425] relu5 <- conv5
I0603 14:04:34.725762  6016 net.cpp:386] relu5 -> conv5 (in-place)
I0603 14:04:34.726269  6016 net.cpp:141] Setting up relu5
I0603 14:04:34.726269  6016 net.cpp:148] Top shape: 50 256 13 13 (2163200)
I0603 14:04:34.726269  6016 net.cpp:156] Memory required for data: 336248800
I0603 14:04:34.726269  6016 layer_factory.hpp:77] Creating layer pool5
I0603 14:04:34.726269  6016 net.cpp:91] Creating Layer pool5
I0603 14:04:34.726269  6016 net.cpp:425] pool5 <- conv5
I0603 14:04:34.726269  6016 net.cpp:399] pool5 -> pool5
I0603 14:04:34.726269  6016 net.cpp:141] Setting up pool5
I0603 14:04:34.726764  6016 net.cpp:148] Top shape: 50 256 6 6 (460800)
I0603 14:04:34.726764  6016 net.cpp:156] Memory required for data: 338092000
I0603 14:04:34.726764  6016 layer_factory.hpp:77] Creating layer fc6
I0603 14:04:34.726764  6016 net.cpp:91] Creating Layer fc6
I0603 14:04:34.726764  6016 net.cpp:425] fc6 <- pool5
I0603 14:04:34.726764  6016 net.cpp:399] fc6 -> fc6
I0603 14:04:35.219089  6016 net.cpp:141] Setting up fc6
I0603 14:04:35.219089  6016 net.cpp:148] Top shape: 50 4096 (204800)
I0603 14:04:35.219089  6016 net.cpp:156] Memory required for data: 338911200
I0603 14:04:35.219089  6016 layer_factory.hpp:77] Creating layer relu6
I0603 14:04:35.219089  6016 net.cpp:91] Creating Layer relu6
I0603 14:04:35.219089  6016 net.cpp:425] relu6 <- fc6
I0603 14:04:35.219089  6016 net.cpp:386] relu6 -> fc6 (in-place)
I0603 14:04:35.219597  6016 net.cpp:141] Setting up relu6
I0603 14:04:35.219597  6016 net.cpp:148] Top shape: 50 4096 (204800)
I0603 14:04:35.219597  6016 net.cpp:156] Memory required for data: 339730400
I0603 14:04:35.219597  6016 layer_factory.hpp:77] Creating layer drop6
I0603 14:04:35.219597  6016 net.cpp:91] Creating Layer drop6
I0603 14:04:35.219597  6016 net.cpp:425] drop6 <- fc6
I0603 14:04:35.219597  6016 net.cpp:386] drop6 -> fc6 (in-place)
I0603 14:04:35.219597  6016 net.cpp:141] Setting up drop6
I0603 14:04:35.219597  6016 net.cpp:148] Top shape: 50 4096 (204800)
I0603 14:04:35.220093  6016 net.cpp:156] Memory required for data: 340549600
I0603 14:04:35.220093  6016 layer_factory.hpp:77] Creating layer fc7
I0603 14:04:35.220093  6016 net.cpp:91] Creating Layer fc7
I0603 14:04:35.220093  6016 net.cpp:425] fc7 <- fc6
I0603 14:04:35.220093  6016 net.cpp:399] fc7 -> fc7
I0603 14:04:35.415683  6016 net.cpp:141] Setting up fc7
I0603 14:04:35.415683  6016 net.cpp:148] Top shape: 50 4096 (204800)
I0603 14:04:35.415683  6016 net.cpp:156] Memory required for data: 341368800
I0603 14:04:35.415683  6016 layer_factory.hpp:77] Creating layer relu7
I0603 14:04:35.415683  6016 net.cpp:91] Creating Layer relu7
I0603 14:04:35.415683  6016 net.cpp:425] relu7 <- fc7
I0603 14:04:35.415683  6016 net.cpp:386] relu7 -> fc7 (in-place)
I0603 14:04:35.416184  6016 net.cpp:141] Setting up relu7
I0603 14:04:35.416687  6016 net.cpp:148] Top shape: 50 4096 (204800)
I0603 14:04:35.416687  6016 net.cpp:156] Memory required for data: 342188000
I0603 14:04:35.416687  6016 layer_factory.hpp:77] Creating layer drop7
I0603 14:04:35.416687  6016 net.cpp:91] Creating Layer drop7
I0603 14:04:35.416687  6016 net.cpp:425] drop7 <- fc7
I0603 14:04:35.416687  6016 net.cpp:386] drop7 -> fc7 (in-place)
I0603 14:04:35.416687  6016 net.cpp:141] Setting up drop7
I0603 14:04:35.416687  6016 net.cpp:148] Top shape: 50 4096 (204800)
I0603 14:04:35.416687  6016 net.cpp:156] Memory required for data: 343007200
I0603 14:04:35.416687  6016 layer_factory.hpp:77] Creating layer fc8_fingerprint
I0603 14:04:35.416687  6016 net.cpp:91] Creating Layer fc8_fingerprint
I0603 14:04:35.416687  6016 net.cpp:425] fc8_fingerprint <- fc7
I0603 14:04:35.416687  6016 net.cpp:399] fc8_fingerprint -> fc8_fingerprint
I0603 14:04:35.426244  6016 net.cpp:141] Setting up fc8_fingerprint
I0603 14:04:35.426244  6016 net.cpp:148] Top shape: 50 140 (7000)
I0603 14:04:35.426244  6016 net.cpp:156] Memory required for data: 343035200
I0603 14:04:35.426244  6016 layer_factory.hpp:77] Creating layer loss
I0603 14:04:35.426244  6016 net.cpp:91] Creating Layer loss
I0603 14:04:35.426244  6016 net.cpp:425] loss <- fc8_fingerprint
I0603 14:04:35.426244  6016 net.cpp:425] loss <- label
I0603 14:04:35.426244  6016 net.cpp:399] loss -> loss
I0603 14:04:35.426244  6016 layer_factory.hpp:77] Creating layer loss
…
I0603 14:04:35.428218  6016 net.cpp:313] The NetState phase (1) differed from the phase (0) specified by a rule in layer data
I0603 14:04:35.428218  6016 net.cpp:49] Initializing net from parameters: 
name: "FingerprintCaffeNet"
state {
  phase: TEST
}
layer {
  name: "data"
  type: "ImageData"
  top: "data"
  top: "label"
  include {
    phase: TEST
  }
  transform_param {
    mirror: false
    crop_size: 227
    mean_file: "imagenet_mean.binaryproto"
  }
  image_data_param {
    source: "data/test.txt"
    batch_size: 50
    new_height: 256
    new_width: 256
  }
}
layer {
  name: "conv1"
  type: "Convolution"
  bottom: "data"
  top: "conv1"
  param {
    lr_mult: 1
    decay_mult: 1
  }
  param {
    lr_mult: 2
    decay_mult: 0
  }
  convolution_param {
    num_output: 96
    kernel_size: 11
    stride: 4
    weight_filler {
      type: "gaussian"
      std: 0.01
    }
    bias_filler {
      type: "constant"
      value: 0
    }
  }
}
layer {
  name: "relu1"
  type: "ReLU"
  bottom: "conv1"
  top: "conv1"
}
layer {
  name: "pool1"
  type: "Pooling"
  bottom: "conv1"
  top: "pool1"
  pooling_param {
    pool: MAX
    kernel_size: 3
    stride: 2
  }
}
layer {
  name: "norm1"
  type: "LRN"
  bottom: "pool1"
  top: "norm1"
  lrn_param {
    local_size: 5
    alpha: 0.0001
    beta: 0.75
  }
}
layer {
  name: "conv2"
  type: "Convolution"
  bottom: "norm1"
  top: "conv2"
  param {
    lr_mult: 1
    decay_mult: 1
  }
  param {
    lr_mult: 2
    decay_mult: 0
  }
  convolution_param {
    num_output: 256
    pad: 2
    kernel_size: 5
    group: 2
    weight_filler {
      type: "gaussian"
      std: 0.01
    }
    bias_filler {
      type: "constant"
      value: 1
    }
  }
}
layer {
  name: "relu2"
  type: "ReLU"
  bottom: "conv2"
  top: "conv2"
}
layer {
  name: "pool2"
  type: "Pooling"
  bottom: "conv2"
  top: "pool2"
  pooling_param {
    pool: MAX
    kernel_size: 3
    stride: 2
  }
}
layer {
  name: "norm2"
  type: "LRN"
  bottom: "pool2"
  top: "norm2"
  lrn_param {
    local_size: 5
    alpha: 0.0001
    beta: 0.75
  }
}
layer {
  name: "conv3"
  type: "Convolution"
  bottom: "norm2"
  top: "conv3"
  param {
    lr_mult: 1
    decay_mult: 1
  }
  param {
    lr_mult: 2
    decay_mult: 0
  }
  convolution_param {
    num_output: 384
    pad: 1
    kernel_size: 3
    weight_filler {
      type: "gaussian"
      std: 0.01
    }
    bias_filler {
      type: "constant"
      value: 0
    }
  }
}
layer {
  name: "relu3"
  type: "ReLU"
  bottom: "conv3"
  top: "conv3"
}
layer {
  name: "conv4"
  type: "Convolution"
  bottom: "conv3"
  top: "conv4"
  param {
    lr_mult: 1
    decay_mult: 1
  }
  param {
    lr_mult: 2
    decay_mult: 0
  }
  convolution_param {
    num_output: 384
    pad: 1
    kernel_size: 3
    group: 2
    weight_filler {
      type: "gaussian"
      std: 0.01
    }
    bias_filler {
      type: "constant"
      value: 1
    }
  }
}
layer {
  name: "relu4"
  type: "ReLU"
  bottom: "conv4"
  top: "conv4"
}
layer {
  name: "conv5"
  type: "Convolution"
  bottom: "conv4"
  top: "conv5"
  param {
    lr_mult: 1
    decay_mult: 1
  }
  param {
    lr_mult: 2
    decay_mult: 0
  }
  convolution_param {
    num_output: 256
    pad: 1
    kernel_size: 3
    group: 2
    weight_filler {
      type: "gaussian"
      std: 0.01
    }
    bias_filler {
      type: "constant"
      value: 1
    }
  }
}
layer {
  name: "relu5"
  type: "ReLU"
  bottom: "conv5"
  top: "conv5"
}
layer {
  name: "pool5"
  type: "Pooling"
  bottom: "conv5"
  top: "pool5"
  pooling_param {
    pool: MAX
    kernel_size: 3
    stride: 2
  }
}
layer {
  name: "fc6"
  type: "InnerProduct"
  bottom: "pool5"
  top: "fc6"
  param {
    lr_mult: 1
    decay_mult: 1
  }
  param {
    lr_mult: 2
    decay_mult: 0
  }
  inner_product_param {
    num_output: 4096
    weight_filler {
      type: "gaussian"
      std: 0.005
    }
    bias_filler {
      type: "constant"
      value: 1
    }
  }
}
layer {
  name: "relu6"
  type: "ReLU"
  bottom: "fc6"
  top: "fc6"
}
layer {
  name: "drop6"
  type: "Dropout"
  bottom: "fc6"
  top: "fc6"
  dropout_param {
    dropout_ratio: 0.5
  }
}
layer {
  name: "fc7"
  type: "InnerProduct"
  bottom: "fc6"
  top: "fc7"
  param {
    lr_mult: 1
    decay_mult: 1
  }
  param {
    lr_mult: 2
    decay_mult: 0
  }
  inner_product_param {
    num_output: 4096
    weight_filler {
      type: "gaussian"
      std: 0.005
    }
    bias_filler {
      type: "constant"
      value: 1
    }
  }
}
layer {
  name: "relu7"
  type: "ReLU"
  bottom: "fc7"
  top: "fc7"
}
layer {
  name: "drop7"
  type: "Dropout"
  bottom: "fc7"
  top: "fc7"
  dropout_param {
    dropout_ratio: 0.5
  }
}
layer {
  name: "fc8_fingerprint"
  type: "InnerProduct"
  bottom: "fc7"
  top: "fc8_fingerprint"
  param {
    lr_mult: 10
    decay_mult: 1
  }
  param {
    lr_mult: 20
    decay_mult: 0
  }
  inner_product_param {
    num_output: 140
    weight_filler {
      type: "gaussian"
      std: 0.01
    }
    bias_filler {
      type: "constant"
      value: 0
    }
  }
}
layer {
  name: "accuracy"
  type: "Accuracy"
  bottom: "fc8_fingerprint"
  bottom: "label"
  top: "accuracy"
  include {
    phase: TEST
  }
}
layer {
  name: "accuracy/top-5"
  type: "Accuracy"
  bottom: "fc8_fingerprint"
  bottom: "label"
  top: "accuracy/top-5"
  include {
    phase: TEST
  }
  accuracy_param {
    top_k: 5
  }
}
layer {
  name: "loss"
  type: "SoftmaxWithLoss"
  bottom: "fc8_fingerprint"
  bottom: "label"
  top: "loss"
}
I0603 14:04:35.428727  6016 layer_factory.hpp:77] Creating layer data
I0603 14:04:35.428727  6016 net.cpp:91] Creating Layer data
I0603 14:04:35.428727  6016 net.cpp:399] data -> data
I0603 14:04:35.428727  6016 net.cpp:399] data -> label
I0603 14:04:35.428727  6016 data_transformer.cpp:25] Loading mean file from: imagenet_mean.binaryproto
I0603 14:04:35.431727  6016 image_data_layer.cpp:38] Opening file data/test.txt
I0603 14:04:35.457295  6016 image_data_layer.cpp:53] A total of 6262 images.
I0603 14:04:35.458828  6016 image_data_layer.cpp:80] output data size: 50,3,227,227
I0603 14:04:35.508008  6016 net.cpp:141] Setting up data
I0603 14:04:35.508008  6016 net.cpp:148] Top shape: 50 3 227 227 (7729350)
I0603 14:04:35.508008  6016 net.cpp:148] Top shape: 50 (50)
I0603 14:04:35.508008  6016 net.cpp:156] Memory required for data: 30917600
I0603 14:04:35.508008  6016 layer_factory.hpp:77] Creating layer label_data_1_split
I0603 14:04:35.508008  6016 net.cpp:91] Creating Layer label_data_1_split
I0603 14:04:35.508008  6016 net.cpp:425] label_data_1_split <- label
I0603 14:04:35.508008  6016 net.cpp:399] label_data_1_split -> label_data_1_split_0
I0603 14:04:35.508008  6016 net.cpp:399] label_data_1_split -> label_data_1_split_1
I0603 14:04:35.508008  6016 net.cpp:399] label_data_1_split -> label_data_1_split_2
I0603 14:04:35.508509  6016 net.cpp:141] Setting up label_data_1_split
I0603 14:04:35.508509  6016 net.cpp:148] Top shape: 50 (50)
I0603 14:04:35.508509  6016 net.cpp:148] Top shape: 50 (50)
I0603 14:04:35.508509  6016 net.cpp:148] Top shape: 50 (50)
I0603 14:04:35.508509  6016 net.cpp:156] Memory required for data: 30918200
I0603 14:04:35.508509  6016 layer_factory.hpp:77] Creating layer conv1
I0603 14:04:35.508509  6016 net.cpp:91] Creating Layer conv1
I0603 14:04:35.508509  6016 net.cpp:425] conv1 <- data
I0603 14:04:35.508509  6016 net.cpp:399] conv1 -> conv1
I0603 14:04:35.510514 16468 common.cpp:36] System entropy source not available, using fallback algorithm to generate seed instead.
I0603 14:04:35.512018  6016 net.cpp:141] Setting up conv1
I0603 14:04:35.512521  6016 net.cpp:148] Top shape: 50 96 55 55 (14520000)
I0603 14:04:35.512521  6016 net.cpp:156] Memory required for data: 88998200
I0603 14:04:35.512521  6016 layer_factory.hpp:77] Creating layer relu1
I0603 14:04:35.512521  6016 net.cpp:91] Creating Layer relu1
I0603 14:04:35.512521  6016 net.cpp:425] relu1 <- conv1
I0603 14:04:35.512521  6016 net.cpp:386] relu1 -> conv1 (in-place)
I0603 14:04:35.516531  6016 net.cpp:141] Setting up relu1
I0603 14:04:35.517032  6016 net.cpp:148] Top shape: 50 96 55 55 (14520000)
I0603 14:04:35.517032  6016 net.cpp:156] Memory required for data: 147078200
I0603 14:04:35.517032  6016 layer_factory.hpp:77] Creating layer pool1
I0603 14:04:35.517032  6016 net.cpp:91] Creating Layer pool1
I0603 14:04:35.517032  6016 net.cpp:425] pool1 <- conv1
I0603 14:04:35.517032  6016 net.cpp:399] pool1 -> pool1
I0603 14:04:35.517032  6016 net.cpp:141] Setting up pool1
I0603 14:04:35.517032  6016 net.cpp:148] Top shape: 50 96 27 27 (3499200)
I0603 14:04:35.517032  6016 net.cpp:156] Memory required for data: 161075000
I0603 14:04:35.517032  6016 layer_factory.hpp:77] Creating layer norm1
I0603 14:04:35.517032  6016 net.cpp:91] Creating Layer norm1
I0603 14:04:35.517032  6016 net.cpp:425] norm1 <- pool1
I0603 14:04:35.517032  6016 net.cpp:399] norm1 -> norm1
I0603 14:04:35.517534  6016 net.cpp:141] Setting up norm1
I0603 14:04:35.518035  6016 net.cpp:148] Top shape: 50 96 27 27 (3499200)
I0603 14:04:35.518035  6016 net.cpp:156] Memory required for data: 175071800
I0603 14:04:35.518035  6016 layer_factory.hpp:77] Creating layer conv2
I0603 14:04:35.518035  6016 net.cpp:91] Creating Layer conv2
I0603 14:04:35.518035  6016 net.cpp:425] conv2 <- norm1
I0603 14:04:35.518035  6016 net.cpp:399] conv2 -> conv2
I0603 14:04:35.529566  6016 net.cpp:141] Setting up conv2
I0603 14:04:35.529566  6016 net.cpp:148] Top shape: 50 256 27 27 (9331200)
I0603 14:04:35.529566  6016 net.cpp:156] Memory required for data: 212396600
I0603 14:04:35.529566  6016 layer_factory.hpp:77] Creating layer relu2
I0603 14:04:35.529566  6016 net.cpp:91] Creating Layer relu2
I0603 14:04:35.529566  6016 net.cpp:425] relu2 <- conv2
I0603 14:04:35.529566  6016 net.cpp:386] relu2 -> conv2 (in-place)
I0603 14:04:35.530066  6016 net.cpp:141] Setting up relu2
I0603 14:04:35.530066  6016 net.cpp:148] Top shape: 50 256 27 27 (9331200)
I0603 14:04:35.530066  6016 net.cpp:156] Memory required for data: 249721400
I0603 14:04:35.530066  6016 layer_factory.hpp:77] Creating layer pool2
I0603 14:04:35.530066  6016 net.cpp:91] Creating Layer pool2
I0603 14:04:35.530066  6016 net.cpp:425] pool2 <- conv2
I0603 14:04:35.530066  6016 net.cpp:399] pool2 -> pool2
I0603 14:04:35.530066  6016 net.cpp:141] Setting up pool2
I0603 14:04:35.530066  6016 net.cpp:148] Top shape: 50 256 13 13 (2163200)
I0603 14:04:35.530066  6016 net.cpp:156] Memory required for data: 258374200
I0603 14:04:35.530066  6016 layer_factory.hpp:77] Creating layer norm2
I0603 14:04:35.530066  6016 net.cpp:91] Creating Layer norm2
I0603 14:04:35.530066  6016 net.cpp:425] norm2 <- pool2
I0603 14:04:35.530066  6016 net.cpp:399] norm2 -> norm2
I0603 14:04:35.531069  6016 net.cpp:141] Setting up norm2
I0603 14:04:35.531069  6016 net.cpp:148] Top shape: 50 256 13 13 (2163200)
I0603 14:04:35.531069  6016 net.cpp:156] Memory required for data: 267027000
I0603 14:04:35.531069  6016 layer_factory.hpp:77] Creating layer conv3
I0603 14:04:35.531069  6016 net.cpp:91] Creating Layer conv3
I0603 14:04:35.531069  6016 net.cpp:425] conv3 <- norm2
I0603 14:04:35.531069  6016 net.cpp:399] conv3 -> conv3
I0603 14:04:35.549124  6016 net.cpp:141] Setting up conv3
I0603 14:04:35.549124  6016 net.cpp:148] Top shape: 50 384 13 13 (3244800)
I0603 14:04:35.549619  6016 net.cpp:156] Memory required for data: 280006200
I0603 14:04:35.549619  6016 layer_factory.hpp:77] Creating layer relu3
I0603 14:04:35.549619  6016 net.cpp:91] Creating Layer relu3
I0603 14:04:35.549619  6016 net.cpp:425] relu3 <- conv3
I0603 14:04:35.549619  6016 net.cpp:386] relu3 -> conv3 (in-place)
I0603 14:04:35.549619  6016 net.cpp:141] Setting up relu3
I0603 14:04:35.549619  6016 net.cpp:148] Top shape: 50 384 13 13 (3244800)
I0603 14:04:35.549619  6016 net.cpp:156] Memory required for data: 292985400
I0603 14:04:35.549619  6016 layer_factory.hpp:77] Creating layer conv4
I0603 14:04:35.549619  6016 net.cpp:91] Creating Layer conv4
I0603 14:04:35.549619  6016 net.cpp:425] conv4 <- conv3
I0603 14:04:35.549619  6016 net.cpp:399] conv4 -> conv4
I0603 14:04:35.564175  6016 net.cpp:141] Setting up conv4
I0603 14:04:35.564658  6016 net.cpp:148] Top shape: 50 384 13 13 (3244800)
I0603 14:04:35.564658  6016 net.cpp:156] Memory required for data: 305964600
I0603 14:04:35.564658  6016 layer_factory.hpp:77] Creating layer relu4
I0603 14:04:35.564658  6016 net.cpp:91] Creating Layer relu4
I0603 14:04:35.564658  6016 net.cpp:425] relu4 <- conv4
I0603 14:04:35.564658  6016 net.cpp:386] relu4 -> conv4 (in-place)
I0603 14:04:35.565161  6016 net.cpp:141] Setting up relu4
I0603 14:04:35.565161  6016 net.cpp:148] Top shape: 50 384 13 13 (3244800)
I0603 14:04:35.565161  6016 net.cpp:156] Memory required for data: 318943800
I0603 14:04:35.565161  6016 layer_factory.hpp:77] Creating layer conv5
I0603 14:04:35.565161  6016 net.cpp:91] Creating Layer conv5
I0603 14:04:35.565161  6016 net.cpp:425] conv5 <- conv4
I0603 14:04:35.565161  6016 net.cpp:399] conv5 -> conv5
I0603 14:04:35.578194  6016 net.cpp:141] Setting up conv5
I0603 14:04:35.578194  6016 net.cpp:148] Top shape: 50 256 13 13 (2163200)
I0603 14:04:35.578194  6016 net.cpp:156] Memory required for data: 327596600
I0603 14:04:35.578194  6016 layer_factory.hpp:77] Creating layer relu5
I0603 14:04:35.578194  6016 net.cpp:91] Creating Layer relu5
I0603 14:04:35.578194  6016 net.cpp:425] relu5 <- conv5
I0603 14:04:35.578194  6016 net.cpp:386] relu5 -> conv5 (in-place)
I0603 14:04:35.578696  6016 net.cpp:141] Setting up relu5
I0603 14:04:35.579200  6016 net.cpp:148] Top shape: 50 256 13 13 (2163200)
I0603 14:04:35.579200  6016 net.cpp:156] Memory required for data: 336249400
I0603 14:04:35.579200  6016 layer_factory.hpp:77] Creating layer pool5
I0603 14:04:35.579200  6016 net.cpp:91] Creating Layer pool5
I0603 14:04:35.579200  6016 net.cpp:425] pool5 <- conv5
I0603 14:04:35.579200  6016 net.cpp:399] pool5 -> pool5
I0603 14:04:35.579200  6016 net.cpp:141] Setting up pool5
I0603 14:04:35.579200  6016 net.cpp:148] Top shape: 50 256 6 6 (460800)
I0603 14:04:35.579200  6016 net.cpp:156] Memory required for data: 338092600
I0603 14:04:35.579200  6016 layer_factory.hpp:77] Creating layer fc6
I0603 14:04:35.579200  6016 net.cpp:91] Creating Layer fc6
I0603 14:04:35.579200  6016 net.cpp:425] fc6 <- pool5
I0603 14:04:35.579200  6016 net.cpp:399] fc6 -> fc6
I0603 14:04:36.097506  6016 net.cpp:141] Setting up fc6
I0603 14:04:36.097506  6016 net.cpp:148] Top shape: 50 4096 (204800)
I0603 14:04:36.097506  6016 net.cpp:156] Memory required for data: 338911800
I0603 14:04:36.097506  6016 layer_factory.hpp:77] Creating layer relu6
I0603 14:04:36.097506  6016 net.cpp:91] Creating Layer relu6
I0603 14:04:36.097506  6016 net.cpp:425] relu6 <- fc6
I0603 14:04:36.097506  6016 net.cpp:386] relu6 -> fc6 (in-place)
I0603 14:04:36.097968  6016 net.cpp:141] Setting up relu6
I0603 14:04:36.097968  6016 net.cpp:148] Top shape: 50 4096 (204800)
I0603 14:04:36.097968  6016 net.cpp:156] Memory required for data: 339731000
I0603 14:04:36.097968  6016 layer_factory.hpp:77] Creating layer drop6
I0603 14:04:36.097968  6016 net.cpp:91] Creating Layer drop6
I0603 14:04:36.097968  6016 net.cpp:425] drop6 <- fc6
I0603 14:04:36.097968  6016 net.cpp:386] drop6 -> fc6 (in-place)
I0603 14:04:36.097968  6016 net.cpp:141] Setting up drop6
I0603 14:04:36.097968  6016 net.cpp:148] Top shape: 50 4096 (204800)
I0603 14:04:36.097968  6016 net.cpp:156] Memory required for data: 340550200
I0603 14:04:36.097968  6016 layer_factory.hpp:77] Creating layer fc7
I0603 14:04:36.097968  6016 net.cpp:91] Creating Layer fc7
I0603 14:04:36.097968  6016 net.cpp:425] fc7 <- fc6
I0603 14:04:36.097968  6016 net.cpp:399] fc7 -> fc7
I0603 14:04:36.306435  6016 net.cpp:141] Setting up fc7
I0603 14:04:36.306435  6016 net.cpp:148] Top shape: 50 4096 (204800)
I0603 14:04:36.306435  6016 net.cpp:156] Memory required for data: 341369400
I0603 14:04:36.306435  6016 layer_factory.hpp:77] Creating layer relu7
I0603 14:04:36.306435  6016 net.cpp:91] Creating Layer relu7
I0603 14:04:36.306435  6016 net.cpp:425] relu7 <- fc7
I0603 14:04:36.306435  6016 net.cpp:386] relu7 -> fc7 (in-place)
I0603 14:04:36.307406  6016 net.cpp:141] Setting up relu7
I0603 14:04:36.307406  6016 net.cpp:148] Top shape: 50 4096 (204800)
I0603 14:04:36.307406  6016 net.cpp:156] Memory required for data: 342188600
I0603 14:04:36.307406  6016 layer_factory.hpp:77] Creating layer drop7
I0603 14:04:36.307406  6016 net.cpp:91] Creating Layer drop7
I0603 14:04:36.307406  6016 net.cpp:425] drop7 <- fc7
I0603 14:04:36.307406  6016 net.cpp:386] drop7 -> fc7 (in-place)
I0603 14:04:36.307406  6016 net.cpp:141] Setting up drop7
I0603 14:04:36.307406  6016 net.cpp:148] Top shape: 50 4096 (204800)
I0603 14:04:36.307406  6016 net.cpp:156] Memory required for data: 343007800
I0603 14:04:36.307406  6016 layer_factory.hpp:77] Creating layer fc8_fingerprint
I0603 14:04:36.307406  6016 net.cpp:91] Creating Layer fc8_fingerprint
I0603 14:04:36.307406  6016 net.cpp:425] fc8_fingerprint <- fc7
I0603 14:04:36.307406  6016 net.cpp:399] fc8_fingerprint -> fc8_fingerprint
I0603 14:04:36.314955  6016 net.cpp:141] Setting up fc8_fingerprint
I0603 14:04:36.314955  6016 net.cpp:148] Top shape: 50 140 (7000)
I0603 14:04:36.314955  6016 net.cpp:156] Memory required for data: 343035800
I0603 14:04:36.314955  6016 layer_factory.hpp:77] Creating layer fc8_fingerprint_fc8_fingerprint_0_split
I0603 14:04:36.314955  6016 net.cpp:91] Creating Layer fc8_fingerprint_fc8_fingerprint_0_split
I0603 14:04:36.314955  6016 net.cpp:425] fc8_fingerprint_fc8_fingerprint_0_split <- fc8_fingerprint
I0603 14:04:36.314955  6016 net.cpp:399] fc8_fingerprint_fc8_fingerprint_0_split -> fc8_fingerprint_fc8_fingerprint_0_split_0
I0603 14:04:36.314955  6016 net.cpp:399] fc8_fingerprint_fc8_fingerprint_0_split -> fc8_fingerprint_fc8_fingerprint_0_split_1
I0603 14:04:36.314955  6016 net.cpp:399] fc8_fingerprint_fc8_fingerprint_0_split -> fc8_fingerprint_fc8_fingerprint_0_split_2
I0603 14:04:36.314955  6016 net.cpp:141] Setting up fc8_fingerprint_fc8_fingerprint_0_split
I0603 14:04:36.314955  6016 net.cpp:148] Top shape: 50 140 (7000)
I0603 14:04:36.314955  6016 net.cpp:148] Top shape: 50 140 (7000)
I0603 14:04:36.314955  6016 net.cpp:148] Top shape: 50 140 (7000)
I0603 14:04:36.314955  6016 net.cpp:156] Memory required for data: 343119800
I0603 14:04:36.314955  6016 layer_factory.hpp:77] Creating layer accuracy
I0603 14:04:36.314955  6016 net.cpp:91] Creating Layer accuracy
I0603 14:04:36.314955  6016 net.cpp:425] accuracy <- fc8_fingerprint_fc8_fingerprint_0_split_0
I0603 14:04:36.314955  6016 net.cpp:425] accuracy <- label_data_1_split_0
I0603 14:04:36.314955  6016 net.cpp:399] accuracy -> accuracy
…
